…
Average actions of items: 192.6421052631579
The number of inters: 18301
The sparsity of the dataset: 92.69316149227035%
Remain Fields: ['user_id', 'item_id', 'timestamp', 'label']
Tue 11 Nov 2025 23:30:20 INFO  [Training]: train_batch_size = [1024] train_neg_sample_args: [{'distribution': 'none', 'sample_num': 'none', 'alpha': 'none', 'dynamic': False, 'candidate_num': 0}]
Tue 11 Nov 2025 23:30:20 INFO  [Evaluation]: eval_batch_size = [1024] eval_args: [{'split': {'RS': [0.8, 0.1, 0.1]}, 'order': 'TO', 'group_by': 'user', 'mode': {'valid': 'full', 'test': 'full'}}]
Tue 11 Nov 2025 23:30:21 INFO  BERT4Rec(
  (item_embedding): Embedding(97, 64, padding_idx=0)
  (position_embedding): Embedding(50, 64)
  (trm_encoder): TransformerEncoder(
    (layer): ModuleList(
      (0-1): 2 x TransformerLayer(
        (multi_head_attention): MultiHeadAttention(
          (query): Linear(in_features=64, out_features=64, bias=True)
          (key): Linear(in_features=64, out_features=64, bias=True)
          (value): Linear(in_features=64, out_features=64, bias=True)
          (softmax): Softmax(dim=-1)
          (attn_dropout): Dropout(p=0.2, inplace=False)
          (dense): Linear(in_features=64, out_features=64, bias=True)
          (LayerNorm): LayerNorm((64,), eps=1e-12, elementwise_affine=True)
          (out_dropout): Dropout(p=0.2, inplace=False)
        )
        (feed_forward): FeedForward(
          (dense_1): Linear(in_features=64, out_features=256, bias=True)
          (dense_2): Linear(in_features=256, out_features=64, bias=True)
          (LayerNorm): LayerNorm((64,), eps=1e-12, elementwise_affine=True)
          (dropout): Dropout(p=0.2, inplace=False)
        )
      )
    )
  )
  (LayerNorm): LayerNorm((64,), eps=1e-12, elementwise_affine=True)
  (dropout): Dropout(p=0.2, inplace=False)
  (output_ffn): Linear(in_features=64, out_features=64, bias=True)
  (output_gelu): GELU(approximate='none')
  (output_ln): LayerNorm((64,), eps=1e-12, elementwise_affine=True)
)
Trainable parameters: 113888
Tue 11 Nov 2025 23:30:21 INFO  FLOPs: 5194664.0
Tue 11 Nov 2025 23:30:25 INFO  epoch 0 training [time: 2.43s, train loss: 49.8294]
Tue 11 Nov 2025 23:30:25 INFO  epoch 0 evaluating [time: 0.27s, valid_score: 0.059100]
Tue 11 Nov 2025 23:30:25 INFO  valid result: 
recall@5 : 0.1044    recall@10 : 0.167    mrr@5 : 0.0511    mrr@10 : 0.0591    ndcg@5 : 0.0643    ndcg@10 : 0.0842    hit@5 : 0.1044    hit@10 : 0.167    precision@5 : 0.0209    precision@10 : 0.0167
…
