…
Average actions of items: 192.7263157894737
The number of inters: 18309
The sparsity of the dataset: 92.68996742046761%
Remain Fields: ['user_id', 'item_id', 'timestamp', 'label']
Wed 12 Nov 2025 09:35:41 INFO  [Training]: train_batch_size = [1024] train_neg_sample_args: [{'distribution': 'none', 'sample_num': 'none', 'alpha': 'none', 'dynamic': False, 'candidate_num': 0}]
Wed 12 Nov 2025 09:35:41 INFO  [Evaluation]: eval_batch_size = [1024] eval_args: [{'split': {'RS': [0.8, 0.1, 0.1]}, 'order': 'TO', 'group_by': 'user', 'mode': {'valid': 'full', 'test': 'full'}}]
Wed 12 Nov 2025 09:35:41 INFO  BERT4Rec(
  (item_embedding): Embedding(97, 64, padding_idx=0)
  (position_embedding): Embedding(50, 64)
  (trm_encoder): TransformerEncoder(
    (layer): ModuleList(
      (0-1): 2 x TransformerLayer(
        (multi_head_attention): MultiHeadAttention(
          (query): Linear(in_features=64, out_features=64, bias=True)
          (key): Linear(in_features=64, out_features=64, bias=True)
          (value): Linear(in_features=64, out_features=64, bias=True)
          (softmax): Softmax(dim=-1)
          (attn_dropout): Dropout(p=0.2, inplace=False)
          (dense): Linear(in_features=64, out_features=64, bias=True)
          (LayerNorm): LayerNorm((64,), eps=1e-12, elementwise_affine=True)
          (out_dropout): Dropout(p=0.2, inplace=False)
        )
        (feed_forward): FeedForward(
          (dense_1): Linear(in_features=64, out_features=256, bias=True)
          (dense_2): Linear(in_features=256, out_features=64, bias=True)
          (LayerNorm): LayerNorm((64,), eps=1e-12, elementwise_affine=True)
          (dropout): Dropout(p=0.2, inplace=False)
        )
      )
    )
  )
  (LayerNorm): LayerNorm((64,), eps=1e-12, elementwise_affine=True)
  (dropout): Dropout(p=0.2, inplace=False)
  (output_ffn): Linear(in_features=64, out_features=64, bias=True)
  (output_gelu): GELU(approximate='none')
  (output_ln): LayerNorm((64,), eps=1e-12, elementwise_affine=True)
)
Trainable parameters: 113888
Wed 12 Nov 2025 09:35:41 INFO  FLOPs: 5194664.0
Wed 12 Nov 2025 09:35:44 INFO  epoch 0 training [time: 1.91s, train loss: 49.7898]
Wed 12 Nov 2025 09:35:45 INFO  epoch 0 evaluating [time: 0.19s, valid_score: 0.060300]
Wed 12 Nov 2025 09:35:45 INFO  valid result: 
recall@5 : 0.1016    recall@10 : 0.1756    mrr@5 : 0.0502    mrr@10 : 0.0603    ndcg@5 : 0.0629    ndcg@10 : 0.087    hit@5 : 0.1016    hit@10 : 0.1756    precision@5 : 0.0203    precision@10 : 0.0176
…
