…
Average actions of items: 192.54736842105262
The number of inters: 18292
The sparsity of the dataset: 92.69115202659506%
Remain Fields: ['user_id', 'item_id', 'timestamp', 'label']
Mon 13 Oct 2025 03:03:34 INFO  [Training]: train_batch_size = [1024] train_neg_sample_args: [{'distribution': 'none', 'sample_num': 'none', 'alpha': 'none', 'dynamic': False, 'candidate_num': 0}]
Mon 13 Oct 2025 03:03:34 INFO  [Evaluation]: eval_batch_size = [1024] eval_args: [{'split': {'RS': [0.8, 0.1, 0.1]}, 'order': 'TO', 'group_by': 'user', 'mode': {'valid': 'full', 'test': 'full'}}]
Mon 13 Oct 2025 03:03:34 INFO  BERT4Rec(
  (item_embedding): Embedding(97, 64, padding_idx=0)
  (position_embedding): Embedding(50, 64)
  (trm_encoder): TransformerEncoder(
    (layer): ModuleList(
      (0-1): 2 x TransformerLayer(
        (multi_head_attention): MultiHeadAttention(
          (query): Linear(in_features=64, out_features=64, bias=True)
          (key): Linear(in_features=64, out_features=64, bias=True)
          (value): Linear(in_features=64, out_features=64, bias=True)
          (softmax): Softmax(dim=-1)
          (attn_dropout): Dropout(p=0.2, inplace=False)
          (dense): Linear(in_features=64, out_features=64, bias=True)
          (LayerNorm): LayerNorm((64,), eps=1e-12, elementwise_affine=True)
          (out_dropout): Dropout(p=0.2, inplace=False)
        )
        (feed_forward): FeedForward(
          (dense_1): Linear(in_features=64, out_features=256, bias=True)
          (dense_2): Linear(in_features=256, out_features=64, bias=True)
          (LayerNorm): LayerNorm((64,), eps=1e-12, elementwise_affine=True)
          (dropout): Dropout(p=0.2, inplace=False)
        )
      )
    )
  )
  (LayerNorm): LayerNorm((64,), eps=1e-12, elementwise_affine=True)
  (dropout): Dropout(p=0.2, inplace=False)
  (output_ffn): Linear(in_features=64, out_features=64, bias=True)
  (output_gelu): GELU(approximate='none')
  (output_ln): LayerNorm((64,), eps=1e-12, elementwise_affine=True)
)
Trainable parameters: 113888
Mon 13 Oct 2025 03:03:34 INFO  FLOPs: 5194664.0
Mon 13 Oct 2025 03:03:37 INFO  epoch 0 training [time: 1.47s, train loss: 49.8212]
Mon 13 Oct 2025 03:03:37 INFO  epoch 0 evaluating [time: 0.15s, valid_score: 0.058200]
Mon 13 Oct 2025 03:03:37 INFO  valid result: 
recall@5 : 0.0985    recall@10 : 0.1716    mrr@5 : 0.049    mrr@10 : 0.0582    ndcg@5 : 0.0612    ndcg@10 : 0.0843    hit@5 : 0.0985    hit@10 : 0.1716    precision@5 : 0.0197    precision@10 : 0.0172
…
